outputs/models/kermut/B2L11_HUMAN_Dutta_2010_binding-Mcl-1_gp.pth (torch, 194732 bytes, 3 tensors)

covar_module.structure_kernel.base_kernel.k_H.hellinger f4 [198, 198]
00000000: 0000 0000 6df1 483e 451a 033e e7d5 303e
00000010: 13e4 573e f386 1e3e 460e 183e 9177 773e
00000020: 411e 343e 341b 8a3e 327d d73d 6458 173e
00000030: 0c46 1c3e 5b83 0e3e becd 2d3e 499a 2e3e
00000040: c43f 423e 6c7e 0b3e c02a 563e 4d5e 1b3e
00000050: 6c7e 163e a827 7c3e 45f6 0f3e 4c06 243e
00000060: f226 3c3e 3506 1a3e ae7c cd3d 980e 343e
00000070: a896 543e 6cb0 043e f088 d23e 2692 4c3e
00000080: 7ce1 5a3e 02b4 e03d 48bb 593e 93b1 703e
00000090: 1053 833e 34de b63e 6fcc 8e3e 3b30 aa3e
000000a0: 1acb 423e 86ad 0b3e 6d3a e23d 466d b43d
000000b0: 986a 103e 1f01 283e f36d 7a3e b0b1 c43d
000000c0: 83e1 5e3e 729a 483e 8179 0b3e 11a5 563e
000000d0: e311 323e 6d34 453e ba45 1c3e cfb6 363e
000000e0: 5640 533e d94b de3e 4b1c 6e3e d952 883e
000000f0: 38a2 9c3e 69a1 423e 7a0e 733e bb0b 573e
00000100: 2d0a 563e 770a 683e 9845 403e acd9 653e
00000110: 6440 6a3e d003 a63e 9ab5 793e 31f3 573e
00000120: 66ce 7f3e 2ef9 a03e 5e33 e23e a6d3 7a3e
00000130: fed7 b63e 68aa 983e 9180 7c3e 132b 8f3e
00000140: 95ba 733e 77fa 573e 04fc 833e 1ef9 863e
00000150: 2e7f 353e d6c5 4f3e 775d 553e 9287 ec3e
00000160: 760e 0a3e 4ddd 433e 16e0 773e 3659 443e
00000170: 357c 2d3e aec1 923e 193c 7d3e f7bd 563e
00000180: 1952 e43d ce2e b93e 3985 f43d 7d84 043f
00000190: a688 683e 9e86 dd3e 5826 953e 6f43 9a3e
000001a0: 0a01 a73e 467d 673e 0ee1 813e 917d ed3e
000001b0: 4958 853e 2939 453f baf3 153f daef 9d3e
000001c0: 77f2 de3e 1026 da3e 348c 833e 77df c43e
000001d0: b6f9 953e 703b ba3e e998 1c3e 6d09 693e
000001e0: 742e 443f aa4d d53e 4d28 913e baa7 f73e
000001f0: 4b44 a63e 272c 8d3e 2c40 9a3e e7f8 a73e
00000200: ece3 a93e e8f5 833e bc5d cc3e 774c a13e
00000210: 5597 9c3e fc58 933e 977a 8c3e e9d2 9a3e
00000220: 5b47 963e 46a1 e23e 99b2 c63e e5f4 843e
00000230: a6c0 d53e 445d da3e c6ad 773e 56a3 663e
00000240: cb2c 923e 2080 013f d930 c93e 3c6d 9e3e
00000250: 9100 943e 18cc a63e 5650 a13e 8329 913e
00000260: 1a78 a23e df00 c13e 6c76 ae3e 5653 883e
00000270: 64f4 a63e c8a6 9c3e 1093 b93e f13d 893e
00000280: 184e a63e e719 9d3e a37f ad3e f200 8f3e
00000290: eb06 8f3e dc85 933e ae30 933e 172c 9c3e
000002a0: 91c2 bb3e 30e9 8c3e 87ef 873e ff71 c23e
000002b0: 6678 9a3e cc80 9e3e 567e c93e 53f0 b63e
000002c0: 8f40 a13e 4b10 0e3f 68c0 cb3e f092 b23e
000002d0: ee6c a03e ee16 983e b621 bb3e c4b1 813e
000002e0: c82b 9f3e 7f5f b93e 8ca9 c53e 0e86 6e3e
000002f0: 3f62 7a3e 62f3 a73e d790 743e 5a20 903e
00000300: 5720 813e 3a13 d43e c628 823e 1564 923e
00000310: ad21 c03e 98c4 d93e 6df1 483e 0000 0000
00000320: 86cb 373e 418a 803e e16e 913e 60fe 963e
00000330: 5f95 913e 17ad 4f3e 89bc 8c3e cc22 843e
00000340: fadb 803e 593b ff3d ad3e 1e3e 3924 2d3e
00000350: 3643 213e ed64 0b3e 94ee ab3d 3661 773e
00000360: 9d93 3a3e 072a 9a3e 738a 883e ac5d 6c3e
00000370: 5441 533e 7614 933e 040f 663e b6af 9e3e
00000380: f36c 7f3e 69bb ec3d 53aa 573e 10ca 943e
00000390: 9376 993e f975 733e 5a37 bf3e 1f0c 4b3e
000003a0: 5116 423e 8f39 9b3e 4f19 943e 7af5 b63e
000003b0: 8496 943e 6ab5 aa3e 2550 0d3e 9935 303e
000003c0: a125 673e 5f70 4c3e 587d ed3d b48a 173e
000003d0: 39c0 643e c8e3 5c3e b74b d53d b701 b63d
000003e0: c01c 543e 6771 1c3e 35b2 633e 908c fa3d
000003f0: e68c 0d3e b8d4 603e 1a2e ee3d 677b a83e
0.0 0.19623347 0.1280299 0.17269097 0.21083097 0.15481167 0.14849195 0.24166705
0.17589666 0.2697388 0.10521926 0.14779812 0.15261096 0.13917296 0.16973016 0.17051043
0.18969637 0.13622445 0.20914745 0.15172692 0.14696664 0.24624503 0.14058788 0.16018027
0.18374231 0.1504143 0.100335464 0.17583692 0.20760596 0.12957925 0.411201 0.19977626
0.21375078 0.10971834 0.21262848 0.23505239 0.2564931 0.35716403 0.27890345 0.33239922
0.1902279 0.13640413 0.110463 0.08809905 0.14103162 0.16406678 0.24456005 0.09604204
0.21765713 0.19590166 0.13620569 0.20961405 0.17389636 0.1925828 0.15260974 0.17843173
0.20630011 0.43417242 0.2325298 0.26625708 0.30592513 0.19006886 0.23735991 0.21000569
0.20902319 0.22660242 0.18776548 0.22446316 0.22876126 0.32424784 0.24385682 0.21088864
0.24981079 0.3144011 0.44179815 0.244948 0.35711664 0.2981751 0.24658419 0.2796255
0.23801644 0.21091639 0.2577821 0.26361936 0.17724296 0.20290312 0.20836435 0.46197182
0.13482079 0.19127388 0.24206576 0.19174656 0.16941912 0.2866339 0.24729957 0.20970903
0.111484714 0.36168522 0.11939473 0.5176466 0.22708377 0.43266767 0.29130816 0.30129573
0.3261798 0.22606382 0.25367016 0.46384862 0.2604392 0.77040344 0.5857502 0.30847055
0.4354436 0.42607164 0.25692904 0.3845174 0.29292077 0.36373472 0.15292706 0.22757502
0.7663338 0.41660815 0.2835106 0.48370153 0.32473978 0.27572748 0.30127084 0.32807085
0.33181703 0.2577355 0.39915264 0.3150365 0.30584207 0.28778827 0.2743728 0.30239037
0.29351315 0.44263667 0.38808134 0.2596809 0.41748542 0.4264928 0.24187383 0.22523245
0.285498 0.5058613 0.3929508 0.30942714 0.28906682 0.32577586 0.31506604 0.28351983
0.31732255 0.37695977 0.34074724 0.2662608 0.3260833 0.30595994 0.36245012 0.2680507
0.32481456 0.30683824 0.33886442 0.2793041 0.27934965 0.28813064 0.28748077 0.30502388
0.3667188 0.27521658 0.26549932 0.37977597 0.30169982 0.3095764 0.393542 0.35730228
0.31494567 0.5549361 0.39795232 0.3487773 0.31333107 0.29704994 0.36549157 0.25330937
0.3108809 0.3620567 0.38605917 0.23293325 0.2445154 0.32802874 0.23883377 0.28149682
0.25219986 0.4142092 0.25421733 0.28591982 0.37525693 0.42532802 0.19623347 0.0
0.17948732 0.2510548 0.28404906 0.29490948 0.28434274 0.20280872 0.2748759 0.25807798
0.2516783 0.124624915 0.15453596 0.16908349 0.15748295 0.13612719 0.083951145 0.24158177
0.18220372 0.3011019 0.26668128 0.23082608 0.2063039 0.28726548 0.22466666 0.30993432
0.24943905 0.11559183 0.21061067 0.2906041 0.29973277 0.23775472 0.37346917 0.19828843
0.18953826 0.3031735 0.2892556 0.3573416 0.29021084 0.33341533 0.13800104 0.17207946
0.22572948 0.19964741 0.11596173 0.14799005 0.22338952 0.21571267 0.10414832 0.08887046
0.20714092 0.15277635 0.2223595 0.122338414 0.1382328 0.21956146 0.11629887 0.3290665

covar_module.structure_kernel.base_kernel.k_p.conditional_probs f4 [198, 20]
00000000: 37d9 d63d cb7e bf3c 4682 1d3d 3740 543d
00000010: e49d f93c 5772 8f3d 48f0 ca3c f849 ec3c
00000020: f48d 0f3d 158f af3d 9445 413d 3f89 e63c
00000030: a592 0a3e 6290 3d3d fc7d 163d 0468 ae3d
00000040: 86d2 383d a746 303d 686c 783c 74c8 a23c
00000050: f504 ae3d 1e4a 903c d6bb 2b3d 76c1 a13d
00000060: 88ee f63c 12d0 1f3e 47c5 b33c 3546 e73c
00000070: 52b3 523d 9865 ba3d 1ba9 133d 967b 093d
00000080: 4ba7 9d3c d4ef 4d3d 3378 2b3d 7b73 aa3d
00000090: 5ebd 403d eb1f 343d f0bc 703c e7d4 bb3c
000000a0: 0b88 d93d fa97 f33c 465b c53c d0e9 4a3d
000000b0: e9c4 0d3d 850a 523d 7c92 bd3c f2a2 2c3d
000000c0: 70f8 173d ca7d d83d f3a8 573d 6980 9c3c
000000d0: ec36 743d 4152 3d3d 4cde 2b3d 9eda a83d
000000e0: 4396 8a3d 6076 b23d 06d9 473c aa14 ba3c
000000f0: b70e a43d a2a3 513c 5c9c a43c 859a 553d
00000100: 6c02 ec3c ecaa c93c b6cd 603c f95d 4f3d
00000110: e7d8 503d d804 2b3e 3004 603d b4ef 9f3c
00000120: 2a29 bd3d a4ab 083d adf7 733d 2f39 433d
00000130: d001 803d 2654 a63d 5b8c a23c 4244 be3c
00000140: fc0b 7a3d c0de 5c3c 3f7c 953c b769 3b3d
00000150: 0cb0 d93c c82f cd3c 253c 673c 9b52 b93d
00000160: 2f94 143d 48c6 073e 6748 813d 1054 8d3c
00000170: d8bb c03d 9430 2e3d a58f 213d fbde 263d
00000180: 20f7 7a3d e119 0d3e d2ef 863c 3a87 983c
00000190: c803 bf3d 61b5 3e3c 74b3 a03c a2c3 7c3d
000001a0: 53a1 a63c 2d01 e73c ea14 593c 7841 333d
000001b0: 044f 123d b49a 043e 6cbf 2f3d f796 733c
000001c0: e79f 403e e095 323d 44e3 383d d3f1 383d
000001d0: d20b 1a3d ab96 bf3d 74c9 3e3c 7b7d 823c
000001e0: 072f 893d 46f9 1e3c 90fe 043d cbf6 3c3d
000001f0: 337f e03c be18 f43c 17a5 733c 3bc4 7d3d
00000200: 286e 113d 72f7 003e 226c 453d 5415 bd3c
00000210: 3862 333e 8265 e93c 73e6 523d 8c45 613d
00000220: fc71 223d 20fa ab3d 4fbe 823c 7ca8 bb3c
00000230: 166a 803d 4cf5 313c 1c88 503d 5ac5 443d
00000240: eaf2 0c3d d063 ff3c 2276 f13c 76e7 6a3d
00000250: c60d 363d 6b79 c43d caaf 103d 9e17 633d
00000260: f9b9 433c df98 753d a5c7 9f3d c52d ab3d
00000270: 1311 793d b12a c73d 0978 7d3c b3db 013d
00000280: 9602 583d 928c 0b3c 9959 313d f8b0 503d
00000290: 8429 373d d8ca e33c 9ce5 ea3c ab05 9f3d
000002a0: d4cb 1e3d 0b3b a13d 4812 dc3c 0916 043d
000002b0: 62e6 0c3e a8e0 1a3d de1c 543d 9efa 473d
000002c0: b72e 423d 9670 c73d a068 8e3c 884a 3a3d
000002d0: 04d4 6e3d 5119 493c b62d 123d ab43 593d
000002e0: fa60 113d c6cf c03c c99d 953c 24d9 cd3d
000002f0: 9d32 133d 6c21 253e 7129 073d fc82 be3c
00000300: 11e4 9e3c 6856 2b3d 7394 563d cedd 323d
00000310: db33 833d cfc3 093e 6595 a53c 5bbf ea3c
00000320: 4fc7 7d3d 8e05 6a3d b579 203d 8900 563d
00000330: 32c0 e73c 58ff 403d eb1c c63c 7b36 063d
00000340: 74ee 193d 3914 b53d 9dde ec3c 7488 da3c
00000350: 7470 2f3e 6d88 433d dfed 453d d4f8 893d
00000360: 15f2 443d 2d95 423d a241 813c 812b c73c
00000370: 8988 d43d f20c 4f3c df15 5c3d b1df b03d
00000380: fa84 db3c 6077 893d 2afe a13c e892 2b3d
00000390: c6e6 383d 5cd7 bc3d 6824 f13c 354b 093d
000003a0: 45f5 2c3d 0247 603d 3c7c 4e3d 8828 943d
000003b0: 9849 613d 116d 883d 61cf 9c3c fbd2 b43c
000003c0: c7ce b83d 40bd 8f3c 6dde 713d e66f 943d
000003d0: efcc d03c 7cc0 3b3d 3302 b83c 1ada 313d
000003e0: 5a06 493d 61f9 ca3d 79d5 df3c 3963 053d
000003f0: cc66 343d 4211 673d a12e 7e3d d503 a63d
0.10490649 0.02337589 0.038454317 0.051819053 0.030470796 0.070042305 0.024772778 0.028843865
0.035047486 0.085722126 0.047185495 0.028141616 0.13532503 0.046280272 0.03674124 0.08515933
0.045122646 0.04303613 0.015162565 0.019870974 0.08497039 0.017613467 0.04192718 0.07898228
0.030143037 0.15606716 0.021944655 0.02823172 0.051440544 0.09101409 0.036049943 0.033565126
0.01924481 0.050277546 0.041862678 0.083228074 0.047055595 0.04397575 0.014693484 0.022928668
0.10621651 0.029735554 0.024091374 0.049539387 0.034611616 0.051279563 0.023141138 0.042147584
0.037102163 0.10570867 0.052651357 0.0191042 0.05962269 0.04622102 0.041960046 0.08244823
0.067669414 0.087139845 0.0121977385 0.022714932 0.08010619 0.012795361 0.02009409 0.052149314
0.028809749 0.024617635 0.01372092 0.05062673 0.050988104 0.16701066 0.054691494 0.019523479
0.09236367 0.033366814 0.059562374 0.047661956 0.06250346 0.08121519 0.019842317 0.023225907
0.061046585 0.013480842 0.018247722 0.045755114 0.026573204 0.025047198 0.014113461 0.09048959
0.03627413 0.13259232 0.06312638 0.017251998 0.09410828 0.042526796 0.03944363 0.040739994
0.061270833 0.13779403 0.016471777 0.018619169 0.09326893 0.011639924 0.01961682 0.061710007
0.020340597 0.028198803 0.013249615 0.043763608 0.035719886 0.1294964 0.042907164 0.014867536
0.18810998 0.043599963 0.045138612 0.045152497 0.03760893 0.093549095 0.01164471 0.015928974
0.06698423 0.009702986 0.032469332 0.046133798 0.027404403 0.029796954 0.014870903 0.061954718
0.035505444 0.12594393 0.048198827 0.02308146 0.17517936 0.028490786 0.051489305 0.054997966
0.039659485 0.08397317 0.015959887 0.022907488 0.06270234 0.010861706 0.050911054 0.04803977
0.03441135 0.031175524 0.029475275 0.057349645 0.04444673 0.09593471 0.035323896 0.055442445
0.011946195 0.059960242 0.07801751 0.08358339 0.0608073 0.097249396 0.015470513 0.031703662
0.05273684 0.008517401 0.043298338 0.05095002 0.044717327 0.027806684 0.02867394 0.07764753
0.038768604 0.0787259 0.026864186 0.032247577 0.13759759 0.037811905 0.051785342 0.04882299
0.047407832 0.09738271 0.017383873 0.045481235 0.058307663 0.012274102 0.035688125 0.05304305
0.035492875 0.023536574 0.018263714 0.10051182 0.03593694 0.1612603 0.032998506 0.023255818
0.01939586 0.04183045 0.052387666 0.04366856 0.06406375 0.13453601 0.020212838 0.028655699
0.061957654 0.057134204 0.03917857 0.052246604 0.028289888 0.047118515 0.024183711 0.0327668
0.037580922 0.08841748 0.028914744 0.026676394 0.17132741 0.047737528 0.048322555 0.06736913
0.04808243 0.047505546 0.015778366 0.024312736 0.103776045 0.012637364 0.053731795 0.08636416
0.026796807 0.06712222 0.019774515 0.041888148 0.045141958 0.09220764 0.029436305 0.03351899
0.042226095 0.05475522 0.050411448 0.07234293 0.055001825 0.06661428 0.019141855 0.02207326
0.09023815 0.017546296 0.059050012 0.072479054 0.025488345 0.045837864 0.022461986 0.04342089
0.049078323 0.099108465 0.027323471 0.03256533 0.044043347 0.056412943 0.062056188 0.081062

covar_module.structure_kernel.base_kernel.k_d.coords f4 [198, 3]
00000000: 2506 c13f 4861 19c2 2506 fe41 713d 4a40
00000010: 8941 0dc2 48e1 ef41 1b2f 4540 2b87 00c2
00000020: 9318 e941 c520 c03f 91ed e4c1 3f35 e441
00000030: d7a3 6040 17d9 cec1 23db d541 ee7c 8340
00000040: 2b87 b6c1 e5d0 e741 b29d 4740 f628 99c1
00000050: 14ae e541 aaf1 be40 295c 86c1 448b dd41
00000060: dd24 9e40 9a99 53c1 f628 e241 c976 0241
00000070: 08ac 32c1 1f85 de41 e926 f940 cdcc f4c0
00000080: 9a99 e941 e7fb 1741 1b2f 89c0 aaf1 e341
00000090: f853 3f41 cff7 0bc0 5a64 d841 a01a 3941
000000a0: c3f5 c83f d122 dd41 c74b 6141 77be 8340
000000b0: 77be d141 b6f3 5f41 5eba e940 c74b cc41
000000c0: 9318 6241 5839 3041 986e c341 e7fb 3f41
000000d0: 39b4 6041 1283 c841 1d5a 4a41 fa7e 8941
000000e0: 5839 b841 aaf1 2241 1904 a141 2b87 b941
000000f0: 560e f140 83c0 af41 9643 a841 85eb 0b41
00000100: 986e ca41 9318 9c41 9eef df40 f628 e141
00000110: 9643 8e41 3bdf 9740 6891 e841 21b0 6c41
00000120: 3108 b440 77be fd41 c74b 4341 cff7 3340
00000130: 3d8a 0742 022b 2b41 4a0c 823e a69b 0a42
00000140: 4c37 0141 9318 04be e3a5 0d42 986e 8a40
00000150: c1ca a1be d3cd 0842 ae47 613f 2506 51c0
00000160: 6811 0d42 23db a9bf dd24 bac0 355e 0642
00000170: ac1c 6ac0 3d0a 17c1 c1ca 0342 cff7 1bc0
00000180: 5a64 45c1 5463 0a42 9a99 8dc0 448b 6ec1
00000190: d1a2 1142 3d0a 0fc0 0e2d 95c1 2586 0f42
000001a0: 3789 e1bf 1283 acc1 fafe 0842 52b8 5ec0
000001b0: 6666 c3c1 cdcc 1142 3333 13c0 52b8 dcc1
000001c0: 082c 0942 bc74 1bc0 c1ca f4c1 1f85 1242
000001d0: 7593 30c0 3fb5 07c2 7dbf 0b42 508d d7bf
000001e0: 8d17 14c2 dda4 1142 7f6a 5cc0 4a0c 20c2
000001f0: b072 0c42 46b6 83c0 7b14 2cc2 60e5 0342
00000200: 9a99 a9c0 0c02 39c2 c7cb 0442 8d97 c6c0
00000210: 8fc2 44c2 db79 0042 a8c6 05c1 f47d 4cc2
00000220: 5eba f441 bc74 2fc1 0601 52c2 1d5a e941
00000230: a470 5fc1 9cc4 5cc2 1904 d441 fed4 66c1
00000240: 3188 62c2 77be c041 6abc 86c1 082c 62c2
00000250: 14ae a941 77be 9ac1 a245 6ac2 d9ce 8f41
00000260: 9643 97c1 560e 6bc2 6210 8041 2db2 b1c1
00000270: 3f35 70c2 1283 4641 cba1 b0c1 b89e 72c2
00000280: 1b2f 2b41 c3f5 cbc1 ac1c 73c2 fed4 e040
00000290: 8b6c d2c1 a2c5 69c2 bc74 7b40 6f12 d6c1
000002a0: 7593 68c2 8fc2 c53f 7f6a eec1 b0f2 5cc2
000002b0: 39b4 88be a69b fcc1 7dbf 52c2 560e 45c0
000002c0: 9a99 f6c1 a8c6 43c2 54e3 2dc0 dbf9 f7c1
000002d0: bac9 37c2 39b4 d8bf 1f85 04c2 bc74 2cc2
000002e0: e3a5 1b3d f0a7 f9c1 f252 21c2 39b4 0840
000002f0: 3789 03c2 ec51 15c2 77be 9f3e aec7 09c2
00000300: 3333 09c2 c74b 37be 8195 00c2 d578 f8c1
00000310: 6891 cd3f 0e2d 05c2 508d e3c1 dd24 26bf
00000320: 9318 0cc2 79e9 d0c1 9643 13c0 a4f0 01c2
00000330: 3d0a b5c1 4a0c 02c0 9643 08c2 3108 9dc1
00000340: c976 be3d 8fc2 03c2 1d5a 8cc1 aaf1 123f
00000350: 1283 10c2 df4f 61c1 5839 94bf 448b 11c2
00000360: 4c37 41c1 85eb 0140 a2c5 0dc2 be9f 54c1
00000370: c74b 2740 7f6a fec1 60e5 30c1 79e9 26be
00000380: 2731 f2c1 e17a f0c0 3789 b13f 6f12 efc1
00000390: 7368 f9c0 ba49 5440 b29d d4c1 ac1c dac0
000003a0: 0e2d a23f 6891 bbc1 fed4 10c1 39b4 7040
000003b0: 713d acc1 0c02 43c1 713d 1a40 39b4 bac1
000003c0: 448b 34c1 17d9 9ebf 6891 b3c1 1904 42c1
000003d0: 9643 2bbf c1ca 95c1 713d 76c1 cff7 a33f
000003e0: 54e3 9ac1 6abc 88c1 df4f 8dbf 7d3f afc1
000003f0: ae47 81c1 1b2f 99c0 6891 a8c1 f853 99c1
1.508 -38.345 31.753 3.16 -35.314 29.985 3.081 -32.132
29.137 1.501 -28.616 28.526 3.51 -25.856 26.732 4.109
-22.816 28.977 3.119 -19.145 28.71 5.967 -16.795 27.693
4.942 -13.225 28.27 8.154 -11.167 27.815 7.786 -7.65
29.2 9.499 -4.287 28.493 11.958 -2.187 27.049 11.569
1.57 27.642 14.081 4.117 26.218 13.997 7.304 25.537
14.131 11.014 24.429 11.999 14.044 25.064 12.647 17.187
23.028 10.184 20.127 23.191 7.533 21.969 21.033 8.745
25.304 19.512 6.998 28.145 17.783 4.746 29.071 14.793
5.626 31.718 12.206 2.812 33.885 10.698 0.254 34.652
8.076 -0.129 35.412 4.326 -0.316 34.201 0.88 -3.266
35.267 -1.327 -5.817 33.592 -3.658 -9.44 32.948 -2.437
-12.337 34.597 -4.425 -14.909 36.409 -2.235 -18.647 35.881
-1.762 -21.564 34.249 -3.48 -24.425 36.45 -2.3 -27.59
34.293 -2.429 -30.599 36.63 -2.759 -33.927 34.937 -1.684
-37.023 36.411 -3.444 -40.012 35.112 -4.116 -43.02 32.974
-5.3 -46.252 33.199 -6.206 -49.19 32.119 -8.361 -51.123
30.591 -10.966 -52.501 29.169 -13.965 -55.192 26.502 -14.427
-56.633 24.093 -16.842 -56.543 21.21 -19.343 -58.568 17.976
-18.908 -58.764 16.008 -22.212 -60.052 12.407 -22.079 -60.655
10.699 -25.495 -60.778 7.026 -26.303 -58.443 3.929 -26.759
-58.144 1.545 -29.802 -55.237 -0.267 -31.576 -52.687 -3.079
-30.825 -48.944 -2.717 -30.997 -45.947 -1.693 -33.13 -43.114
0.038 -31.207 -40.331 2.136 -32.884 -37.33 0.312 -34.445
-34.3 -0.179 -32.146 -31.059 1.606 -33.294 -28.444 -0.649
-35.024 -26.114 -2.301 -32.485 -22.63 -2.032 -34.066 -19.629
0.093 -32.94 -17.544 0.574 -36.128 -14.082 -1.158 -36.386
-12.076 2.03 -35.443 -13.289 2.614 -31.802 -11.056 -0.163
-30.274 -7.515 1.387 -29.884 -7.794 3.317 -26.577 -6.816
1.267 -23.446 -9.052 3.761 -21.53 -12.188 2.41 -23.338
-11.284 -1.241 -22.446 -12.126 -0.669 -18.724 -15.39 1.281
-19.361 -17.092 -1.104 -21.906 -16.16 -4.787 -21.071 -19.166
